TIM/trained_CNN.pth (torch_old, 249552 bytes, 10 tensors)

conv1.weight f4 [6, 3, 5, 5]
-0.08092321 -0.15738633 -0.19835603 -0.061322484 -0.19021831 -0.094517715 -0.07473629 -0.1686405
-0.17396136 -0.11821098 -0.23551652 -0.08193023 -0.012623594 0.03247193 -0.0613601 0.072153784
0.058339965 0.025442338 0.15863018 0.025040578 0.16460103 0.10539902 -0.012161149 0.07009112
0.11944834 -0.0086497 -0.06423405 -0.17557214 -0.19712472 -0.035484724 -0.23343612 -0.23790811
-0.17927592 -0.07197731 -0.109508574 -0.2367755 -0.14293472 0.024759129 0.063297324 0.06580383
-0.114270195 0.03537199 0.10686994 -0.010573998 -0.06163023 -0.122024775 -0.12052127 -0.14424433
-0.06815196 -0.26697436 0.13139465 -0.0189618 -0.10213046 0.08800549 0.12932898 -0.038125712
-0.15363201 -0.11416987 0.009165586 0.2276038 0.042278774 -0.02720133 0.18008453 0.22489327
0.2606203 0.10619183 0.2752756 0.2863506 0.15591401 0.26280546 -0.023798935 0.14998223
0.26689354 0.11888888 0.07788956 -0.13245289 -0.09124836 0.10388493 0.047963735 0.12867709
0.16064914 0.24141578 0.20771903 0.24648711 0.1505419 -0.20840946 -0.17390509 -0.304937
-0.1369151 -0.36755976 -0.45260933 -0.56768197 -0.43519238 -0.55099857 -0.4237565 -0.19016695
-0.24986383 -0.18537912 -0.1135777 -0.06153771 -0.06982969 0.0011554225 -0.07640031 0.012279996
0.1315847 0.2553157 0.29649082 0.36550307 0.42757055 0.33808258 0.054553933 0.22019662
0.012138006 0.00814128 -0.122453995 -0.14664744 -0.1266266 -0.33645406 -0.21901654 -0.13219562
-0.08150807 0.034997743 0.026007915 0.15004785 0.07785217 -0.15730362 -0.27642754 -0.25987297
-0.17012763 -0.018231932 0.14148127 0.20469844 0.34397948 0.18042079 0.1777462 0.2156413
0.1692524 0.18815072 -0.008735866 0.042277787 0.07267222 -0.00060334697 -0.08181139 0.010199982
0.10795977 0.27544323 0.28955078 0.2674575 0.32217112 0.30183062 -0.089220285 0.010575516
-0.044304818 -0.16213316 -0.17370993 -0.14013886 -0.011454586 0.10057383 -0.035175614 -0.1528146
-0.08805782 -0.090968825 0.13920975 0.0036567699 -0.12651405 -0.17754179 0.018881394 -0.004174731
-0.041540038 -0.029932966 -0.10555131 -0.010161118 -0.011926228 0.12764992 0.056206882 -0.0009858474
0.0831755 0.03211888 -0.037021324 -0.24447423 0.028254302 0.07391368 -0.0071230363 0.01750108
-0.2880754 -0.08803618 -0.04722869 0.040757686 0.052470095 -0.22432463 -0.061980277 0.0427424
0.022736879 0.13412768 -0.17045876 -0.08523541 -0.12324827 -0.017992835 0.072056904 -0.09646193
0.13809475 0.25410584 0.2299892 0.03980404 -0.038421836 0.011792835 0.17450063 0.37307298
0.24326292 0.04355923 -0.07320706 0.1822029 0.3431176 0.316165 0.13528612 -0.07972449
0.060817543 0.30644134 0.28094625 0.029755201 -0.15263762 0.14475463 0.22573894 0.18862587
0.069356136 -0.13407767 -0.24099733 0.23365583 0.07324397 -0.16489778 -0.34408194 -0.5258936
0.35336253 0.30084026 -0.13739634 -0.020755455 -0.6963976 -0.118229106 0.5491105 0.01876344
0.04125742 -0.09458263 -0.32470572 0.03668405 0.20157835 -0.02092312 0.13250732 -0.019363381
-0.21454027 0.026483562 -0.27137578 -0.13561031 0.25578517 0.27361357 -0.21345137 -0.15010183
00000000: 11bb a5bd e229 21be d81d 4bbe 492d 7bbd
00000010: 97c8 42be 8192 c1bd 570f 99bd 18b0 2cbe
00000020: ed22 32be 9918 f2bd 3e2b 71be 09cb a7bd
00000030: 31d3 4ebc 4901 053d ba54 7bbd 5dc5 933d
00000040: e3f5 6e3d 736c d03c f36f 223e e621 cd3c
00000050: 2c8d 283e 71db d73d 8e3f 47bc ef8b 8f3d
00000060: 55a1 f43d 79b7 0dbc 248d 83bd 2fc9 33be
00000070: 10db 49be 6e58 11bd e109 6fbe 2f9e 73be
00000080: 1b94 37be d768 93bd 0846 e0bd 4775 72be
00000090: 7b5d 12be a8d3 ca3c 07a2 813d 29c4 863d
000000a0: 7e06 eabd 38e2 103d a1de da3d 903e 2dbc
000000b0: fb6f 7cbd 20e8 f9bd dbd3 f6bd c9b4 13be
000000c0: 4193 8bbd ddb0 88be 528c 063e c755 9bbc
000000d0: c629 d1bd 393c b43d d16e 043e b529 1cbd
000000e0: b651 1dbe e5d1 e9bd 412b 163c f810 693e
000000f0: 822c 2d3d 53d5 debc 1468 383e 6c4a 663e
00000100: 0670 853e 1a7b d93d ecf0 8c3e 8c9c 923e
00000110: eca7 1f3e 708e 863e fcf5 c2bc f194 193e
00000120: 45a6 883e 037c f33d 9084 9f3d bba1 07be
00000130: 6ce0 babd 9fc1 d43d 9f75 443d edc3 033e
00000140: 3581 243e b335 773e 4cb4 543e 1e67 7c3e
00000150: a827 1a3e 4a69 55be 2d14 32be b420 9cbe
00000160: 7933 0cbe cb30 bcbe 69bc e7be 9b53 11bf
00000170: 89d1 debe 3e0e 0dbf 9df6 d8be 20bb 42be
00000180: 4edc 7fbe 06d4 3dbe 6d9b e8bd f70e 7cbd
00000190: de02 8fbd 8c71 973a c477 9cbd 0932 493c
000001a0: 24be 063e bdb8 823e a5cd 973e 3823 bb3e
000001b0: 87ea da3e 2919 ad3e f273 5f3d 397b 613e
000001c0: 7dde 463c 0163 053c 29c9 fabd bf2a 16be
000001d0: 67aa 01be b543 acbe df45 60be 4a5e 07be
000001e0: b4ed a6bd cb59 0f3d 8d0e d53c 25a6 193e
000001f0: f570 9f3d 3314 21be e987 8dbe 120e 85be
00000200: f035 2ebe 225b 95bc 77e0 103e 789c 513e
00000210: 141e b03e 3ac0 383e 1a03 363e 13d1 5c3e
00000220: 8050 2d3e 95aa 403e e120 0fbc 792b 2d3d
00000230: 2cd5 943d ee29 1eba bb8c a7bd d31d 273c
00000240: 031a dd3d e506 8d3e 0040 943e 30f0 883e
00000250: 9df3 a43e 8b89 9a3e 20b9 b6bd ee44 2d3c
00000260: f878 35bd 3c06 26be 04e1 31be 9080 0fbe
00000270: 04ac 3bbc a7f9 cd3d 4e14 10bd 6e7b 1cbe
00000280: a957 b4bd dd4d babd 008d 0e3e 6ba6 6f3b
00000290: e68c 01be 84cd 35be 27ad 9a3c 2fcc 88bb
000002a0: e325 2abd fb35 f5bc 492b d8bd d17a 26bc
000002b0: 3a66 43bc a9b6 023e 3039 663d 8d37 81ba
000002c0: eb57 aa3d 168f 033d aca3 17bd 7457 7abe
000002d0: 9175 e73c 0e60 973d 5c68 e9bb 6d5e 8f3c
000002e0: 9e7e 93be 504c b4bd df72 41bd 88f1 263d
000002f0: e2ea 563d 5bb5 65be 08df 7dbd a812 2f3d
00000300: b142 ba3c c458 093e be8c 2ebe e78f aebd
00000310: 9769 fcbd b665 93bc 9292 933d d58d c5bd
00000320: b668 0d3e 291a 823e 4a82 6b3e 9009 233d
00000330: 3760 1dbd bc36 413c 4bb0 323e 6c03 bf3e
00000340: ea19 793e 2a6b 323d 95ed 95bd 6693 3a3e
00000350: 1cad af3e 61e0 a13e 7288 0a3e 9846 a3bd
00000360: d11b 793d e1e5 9c3e 30d8 8f3e 2ec1 f33c
00000370: 094d 1cbe 8f3a 143e 1c28 673e 2427 413e
00000380: 970a 8e3d a84b 09be 01c8 76be 7943 6f3e
00000390: ef00 963d f7da 28be 822b b0be f7a0 06bf
000003a0: efeb b43e bc07 9a3e a0b1 0cbe 5807 aabc
000003b0: 1d47 32bf 1a22 f2bd 8192 0c3f c9b5 993c
000003c0: 8afd 283d 8ab4 c1bd d43f a6be 0442 163d
000003d0: 8e6a 4e3e f766 abbc 00b0 073e f49f 9ebc
000003e0: 72b0 5bbe 0ef4 d83c c4f1 8abe 6edd 0abe
000003f0: 46f6 823e 1417 8c3e ff92 5abe 4bb4 19be

conv1.bias f4 [6]
-0.34571704 0.10366687 0.22158976 -0.10947144 -0.45194313 -0.19819094
00000000: d301 b1be 4c4f d43d 6de8 623e 9032 e0bd
00000010: 1765 e7be 91f2 4abe

conv2.weight f4 [16, 6, 5, 5]
0.04196584 -0.077216685 -0.030752243 0.01294575 -0.056636143 0.013379611 -0.029063243 0.013257009
-0.020009922 0.13275279 -0.13622998 0.011876257 -0.015337577 -0.046557922 -0.011370096 -0.017253004
0.0065640924 0.08882578 0.042627323 0.07182096 0.074194804 0.046315502 -0.0054246327 -0.023556443
-0.05455132 0.21304958 0.19000772 0.1639907 0.18496314 0.18084623 0.1426478 0.020873357
-0.15300477 -0.06350365 0.09471687 0.051702462 0.047301985 0.025161257 0.05022033 0.1051487
-0.041676316 0.014420978 -0.06783639 -0.013325519 0.13246244 0.089012295 0.011533492 0.07813938
0.075866126 0.25012177 0.05265437 0.07958927 -0.05285052 -0.05889711 0.15455544 -0.094336994
-0.12374935 -0.07482482 0.02761432 0.023438338 0.07449323 -0.089635186 -0.05072428 -0.09086985
-0.004672145 -0.0076187686 0.035077486 0.080257654 0.033145554 -0.036330782 -0.029580921 0.050451495
-0.023331702 -0.033158902 -0.06204836 -0.2675838 -0.13775438 -0.1674809 -0.25750783 -0.18469706
-0.25255343 -0.31875437 -0.35735345 -0.17858022 -0.08020981 -0.25303516 -0.28978336 -0.21385245
-0.22660266 -0.15754485 -0.015663328 -0.13828719 -0.23545024 -0.24860553 -0.17398113 0.05888204
-0.10053064 -0.1258201 -0.16231135 -0.08332738 -0.104951635 -0.10668242 -0.1994044 -0.08683502
-0.21008655 -0.02408783 -0.09529912 -0.14629547 -0.038419332 -0.14662749 0.12968454 0.18700342
0.05894556 -0.032411207 -0.043022536 0.27526218 0.16096915 0.13896689 0.18017682 0.027746676
0.20538446 0.1546052 -0.008924846 0.04974301 -0.011310797 -0.007885054 -0.0772932 -0.095251724
-0.021469103 0.06110258 0.02572132 0.14467202 0.074726775 0.011500685 0.13960458 0.07267759
0.0043063937 0.09281855 0.0755336 0.13586847 0.08192768 0.16947274 0.12807664 0.055153407
0.028789554 0.087107055 0.07539716 -0.0037670243 0.019010393 0.0133733535 0.022424163 0.0385367
-0.04407652 -0.04159198 0.026934687 0.055767164 -0.020774854 0.023974132 -0.062475506 0.013384954
-0.012621125 0.08363413 0.044599652 0.053347517 -0.042167537 -0.0031959892 0.018089559 0.03486802
-0.022950778 -0.007760926 -0.042067114 -0.027815282 0.082217574 0.019166611 -0.059521288 0.0049346485
0.06327317 -0.016764037 0.046660446 -0.011268036 -0.027053924 0.01786035 0.08563899 0.019048797
0.10849789 -0.034152802 -0.10346859 -0.114764854 -0.09151272 -0.12446215 0.00025316677 0.07368858
0.19240321 0.053780932 0.0846245 -0.049111493 -0.06826727 -0.052873317 0.0003371008 -0.10310928
0.10970627 -0.06374978 0.10622 -0.04191456 -0.00664311 0.026248122 -0.00906476 -0.05081088
0.05758126 -0.09107187 -0.07193399 -0.035584863 0.050983515 -0.044462703 -0.07400001 -0.058837533
-0.076141976 -0.1445221 -0.05619268 -0.013564788 0.02983473 -0.14566883 -0.17978814 -0.16748661
-0.11547606 0.22220464 -0.11783345 0.095091425 0.009977221 0.11758143 0.12559654 -0.17796303
-0.028423551 0.030607102 -0.20110358 -0.14013766 0.012512077 -0.07655976 0.05085406 -0.17185086
-0.2157981 0.14344966 -0.0933501 -0.076858796 0.0073384508 -0.08596049 0.2718612 -0.009868539
-0.07189525 0.06518305 -0.11077366 -0.07878556 -0.111002736 -0.045267045 -0.08226141 0.20838344
00000000: 5fe4 2b3d c823 9ebd 21ec fbbc 691a 543c
00000010: 4dfb 67bd 2836 5b3c 0a16 eebc ed33 593c
00000020: d9eb a3bc 59f0 073e df7f 0bbe a294 423c
00000030: 764a 7bbc 85b3 3ebd a449 3abc 2c56 8dbc
00000040: 9917 d73b 4aea b53d fd99 2e3d de16 933d
00000050: 72f3 973d 53b5 3d3d 1ec1 b1bb 71f9 c0bc
00000060: 3471 5fbd ab29 5a3e 6291 423e 2eed 273e
00000070: fa66 3d3e c12f 393e 4412 123e 9afe aa3c
00000080: 48ad 1cbe 340e 82bd ebfa c13d f6c5 533d
00000090: babf 413d fb1e ce3c d5b3 4d3d 3458 d73d
000000a0: c9b4 2abd f745 6c3c ceed 8abd 4753 5abc
000000b0: 3ca4 073e 144c b63d f9f6 3c3c 8a07 a03d
000000c0: b35f 9b3d f60f 803e 1cac 573d b3ff a23d
000000d0: c979 58bd 193e 71bd c843 1e3e c133 c1bd
000000e0: 4d70 fdbd c13d 99bd 6d37 e23c c201 c03c
000000f0: e88f 983d a792 b7bd 43c4 4fbd f919 babd
00000100: cb18 99bb dda6 f9bb 69ad 0f3d 205e a43d
00000110: a2c3 073d 96cf 14bd b053 f2bc 3aa6 4e3d
00000120: 2022 bfbc a1d1 07bd 6c26 7ebd be00 89be
00000130: 7c0f 0dbe 1d80 2bbe 11d8 83be 3a21 3dbe
00000140: af4e 81be c633 a3be 08f7 b6be bcdd 36be
00000150: 0a45 a4bd d38d 81be 7c5e 94be 23fc 5abe
00000160: 870a 68be 7053 21be 6150 80bc 289b 0dbe
00000170: de19 71be 7392 7ebe 1c28 32be 4b2e 713d
00000180: 02e3 cdbd fcd6 00be f234 26be 8ca7 aabd
00000190: e2f0 d6bd 507c dabd ab30 4cbe 8fd6 b1bd
000001a0: ee20 57be d753 c5bc 2f2c c3bd 7bce 15be
000001b0: 975d 1dbd 8425 16be 06cc 043e d37d 3f3e
000001c0: e670 713d 9dc1 04bd 6638 30bd 2aef 8c3e
000001d0: 19d5 243e 564d 0e3e 4680 383e ff4c e33c
000001e0: 4e50 523e d350 1e3e 8439 12bc 54bf 4b3d
000001f0: ec50 39bc 5030 01bc e64b 9ebd 5613 c3bd
00000200: f9df afbc b346 7a3d 85b5 d23c e724 143e
00000210: 5a0a 993d 5e6d 3c3c 81f4 0e3e fdd7 943d
00000220: a61c 8d3b a717 be3d 5cb1 9a3d 1b21 0b3e
00000230: b3c9 a73d 438a 2d3e 8626 033e 8ae8 613d
00000240: 12d8 eb3c 2f65 b23d d469 9a3d 2ee0 76bb
00000250: afbb 9b3c e91b 5b3c e1b2 b73c a9d8 1d3d
00000260: 9589 34bd 5a5c 2abd 22a6 dc3c 1c6c 643d
00000270: 0730 aabc 6665 c43c 51e6 7fbd 914c 5b3c
00000280: d6c8 4ebc 5f48 ab3d 20ae 363d ed82 5a3d
00000290: deb7 2cbd cd73 51bb 8e30 943c c5d1 0e3d
000002a0: 4503 bcbc 5e4f febb 914e 2cbd e0dc e3bc
000002b0: b061 a83d 4c03 9d3c 98cc 73bd d5b2 a13b
000002c0: 5d95 813d bc54 89bc 061f 3f3d 929d 38bc
000002d0: 31a0 ddbc de4f 923c 7f63 af3d 390c 9c3c
000002e0: 2434 de3d cfe3 0bbd 57e7 d3bd d609 ebbd
000002f0: 056b bbbd 03e6 febd 78bb 8439 0aea 963d
00000300: 5905 453e 6549 5c3d 9c4f ad3d 2229 49bd
00000310: b6cf 8bbd b191 58bd e7bc b039 f52a d3bd
00000320: aead e03d 3f8f 82bd df89 d93d 9aae 2bbd
00000330: 72ae d9bb 4d06 d73c 5c84 14bc 121f 50bd
00000340: 54da 6b3d e383 babd 2152 93bd 6fc1 11bd
00000350: 17d4 503d 861e 36bd 518d 97bd a0ff 70bd
00000360: 53f0 9bbd 9afd 13be 4c2a 66bd d83e 5ebc
00000370: f767 f43c 362a 15be 621a 38be 9c81 2bbe
00000380: b67e ecbd 9d89 633e aa52 f1bd 4bbf c23d
00000390: 7f77 233c 88ce f03d 619c 003e f13b 36be
000003a0: 82d8 e8bc bfbb fa3c 19ee 4dbe 3f80 0fbe
000003b0: 74ff 4c3c 5dcb 9cbd 594c 503d acf9 2fbe
000003c0: 2dfa 5cbe 78e4 123e 562e bfbd 2568 9dbd
000003d0: 6377 f03b 0e0c b0bd 6431 8b3e a7af 21bc
000003e0: d13d 93bd b17e 853d 4ddd e2bd 535a a1bd
000003f0: 6755 e3bd f069 39bd ac78 a8bd 7862 553e

conv2.bias f4 [16]
0.39395714 -0.30780494 -0.15121582 0.06902186 0.08540945 0.027832381 0.6417223 0.05657803
-0.7058315 0.22195873 -0.5792248 0.3429878 -0.2508313 0.19115947 -0.09818935 0.78142804
00000000: c0b4 c93e 9c98 9dbe 52d8 1abe 555b 8d3d
00000010: 26eb ae3d bc00 e43c ea47 243f 5dbe 673d
00000020: 60b1 34bf 2649 633e 1448 14bf 199c af3e
00000030: f66c 80be 4fbf 433e 7f17 c9bd ab0b 483f

fc1.weight f4 [120, 400]
0.12011181 0.119312264 0.10823195 0.032598667 0.10044139 0.007701264 0.019985037 0.09080643
0.006364849 0.07644108 -0.0006468601 -0.022923494 -0.01368681 -0.0039542387 0.033452068 0.04417017
-0.048455566 -0.0067040897 0.0015878162 0.08814222 0.06474077 -0.013122819 -0.0072921305 0.0035713983
0.033253107 0.034586594 0.0067829196 -0.076716915 -0.018062506 0.010767806 -0.03343301 -0.0058607925
-0.0002457413 -0.023719111 -0.017864821 0.010216302 0.03583983 -0.0106778005 -0.063119516 -0.03184701
-0.053772267 0.00959749 0.044351045 -0.020731023 -0.017435217 -0.021835858 0.008262373 0.016044501
0.019116206 0.003159554 0.019442134 -0.00255521 -0.018702101 -0.037300784 -0.023270536 0.004139778
0.030716004 -0.047445558 -0.016961532 -0.040848985 -0.038540237 0.0050495393 -0.032884948 -0.04841573
-0.0045848745 0.00093094015 -0.0025929243 0.010072639 0.017143033 -0.05821073 0.028647797 0.04641392
0.030003162 -0.002287542 -0.030937623 -0.027780594 0.01027873 0.0052895993 0.015691027 0.001550559
-0.017980319 -0.0017953501 -0.011902002 -0.05346258 0.034211826 0.0678236 -0.0039387895 -0.05765323
-0.0422983 0.011919759 0.036954813 0.028366044 -0.057086684 -0.043965273 -0.05712954 -0.03734765
0.014747633 0.02349539 -0.003993164 -0.018436285 -0.07618395 -0.06159892 -0.055492677 -0.03710802
-0.044761047 -0.07511619 -0.02437462 -0.03720398 -0.059970405 -0.105629 0.034561407 -0.0066994494
-0.06567244 -0.025954038 -0.025922773 0.015156083 0.006808805 -0.030175142 0.036013093 -0.088863984
-0.0039509013 0.030834096 0.0647902 0.0075475783 -0.06471975 -0.016318295 -0.030658469 -0.002653909
0.026846923 0.020228071 -0.057094805 -0.050502233 0.007525918 0.03362541 0.016424889 0.012400725
-0.007531154 -0.03441405 -0.003907497 -0.052089285 0.03278179 -0.023935977 0.0020505374 0.007044307
0.02374936 -0.026672099 0.018692529 -0.008986437 0.03791804 0.0056501487 -0.0049009756 0.01496288
-0.047111128 0.020336011 -0.055936772 -0.0647493 0.022575364 0.011834119 0.008415661 -0.04977796
-0.00024486624 0.03962867 0.03802661 -0.020694947 -0.059108675 0.008692936 0.021590782 0.03268688
0.01710018 -0.018402016 0.00535085 -0.061107386 0.009219305 0.05568396 -0.011795319 -0.0099519
-0.06036712 0.0062335907 -0.05610741 0.025490973 -0.08084285 -0.044085212 0.046292685 -0.01196929
-0.01614434 0.0360067 0.098016 0.052497376 0.008480804 -0.040896524 0.064842135 0.075883135
0.004108378 -0.012607383 -0.07242455 0.026902253 0.06670003 -0.024318581 0.0391645 0.013155121
-0.09063421 -0.03964561 -0.009530344 -0.022707649 -0.0034095854 -0.066298336 -0.06768041 0.019243049
-0.013228003 -0.049816262 -0.035806786 0.010316874 0.07982629 0.016234381 -0.037321597 0.0087778745
0.04113584 -0.0045152875 0.003118425 -0.023025455 0.012127537 -0.027216185 0.027065067 -0.047518022
-0.079027385 -0.022660593 0.027410915 -0.03151048 -0.047488227 -0.06598766 -0.042470776 -0.031289566
0.013733826 0.011107851 -0.005844945 0.042603288 -0.016930737 -0.013290726 0.07890765 9.0144706e-05
-0.038231693 0.029272487 0.011337837 0.05916223 -0.012510383 -0.038141314 0.030552873 0.06976054
0.085388176 -0.037061125 -0.03886124 -0.03742819 -0.07111499 -0.026847573 -0.04409354 -0.057262305
00000000: 2efd f53d fd59 f43d b6a8 dd3d 2e86 053d
00000010: 37b4 cd3d e35a fc3b a9b7 a33c b9f8 b93d
00000020: 3990 d03b 248d 9c3d 0c92 29ba 0dca bbbc
00000030: a43e 60bc 8f92 81bb 0905 093d c8eb 343d
00000040: 5879 46bd fbad dbbb 451e d03a e983 b43d
00000050: cf96 843d 1801 57bc d3f2 eebb 1f0e 6a3b
00000060: 6934 083d acaa 0d3d 4143 de3b c21d 9dbd
00000070: d2f7 93bc 746b 303c 0df1 08bd e40b c0bb
00000080: d7d6 80b9 954e c2bc 3f59 92bc 4762 273c
00000090: c9cc 123d f1f1 2ebc ce44 81bd 0372 02bd
000000a0: 4f40 5cbd ca3e 1d3c 71a9 353d 1bd4 a9bc
000000b0: 4dd4 8ebc 1de1 b2bc e75e 073c c26f 833c
000000c0: 9799 9c3c 8510 4f3b 1c45 9f3c 4f75 27bb
000000d0: 2635 99bc b5c8 18bd daa1 bebc faa6 873b
000000e0: 21a0 fb3c 4656 42bd e9f2 8abc 4451 27bd
000000f0: 5edc 1dbd 9b76 a53b 5eb2 06bd 934f 46bd
00000100: b73c 96bb 560a 743a 0dee 29bb b607 253c
00000110: 8c6f 8c3c 606e 6ebd c9ae ea3c 861c 3e3d
00000120: 31c9 f53c 96ea 15bb e670 fdbc 2194 e3bc
00000130: 1e68 283c 6054 ad3b 788a 803c 203c cb3a
00000140: 764b 93bc f451 ebba 9d00 43bc 94fb 5abd
00000150: b321 0c3d 19e7 8a3d f610 81bb cb25 6cbd
00000160: fb40 2dbd 184b 433c ee5d 173d e85f e83c
00000170: bad3 69bd ee14 34bd aa00 6abd d9f9 18bd
00000180: 0ea0 713c 6779 c03c 16d9 82bb b107 97bc
00000190: 5506 9cbd 264f 7cbd 4a4c 63bd 94fe 17bd
000001a0: 5c57 37bd 84d6 99bd 48ad c7bc 3363 18bd
000001b0: 87a3 75bd 0454 d8bd 4390 0d3d 0e87 dbbb
000001c0: 467f 86bd 909d d4bc ff5b d4bc 3851 783c
000001d0: 651c df3b dc31 f7bc 7782 133d 52fe b5bd
000001e0: 9076 81bb c997 fc3c b9b0 843d ad51 f73b
000001f0: ca8b 84bd f2ad 85bc 7827 fbbc 34ed 2dbb
00000200: 14ee db3c 57b5 a53c 3edc 69bd 6edb 4ebd
00000210: fa9b f63b ccba 093d 7d8d 863c 692c 4b3c
00000220: e6c7 f6bb bff5 0cbd 760a 80bb 935b 55bd
00000230: 3346 063d 6215 c4bc 4f62 063b eed3 e63b
00000240: 058e c23c 727f dabc 1321 993c d93b 13bc
00000250: f24f 1b3d e224 b93b 5d98 a0bb de26 753c
00000260: 99f7 40bd b597 a63c f51d 65bd 489b 84bd
00000270: f8ef b83c e5e3 413c d7e1 093c f9e3 4bbd
00000280: 6461 80b9 ac51 223d cac1 1b3d 7388 a9bc
00000290: f01b 72bd d16c 0e3c 27df b03c aee2 053d
000002a0: ad15 8c3c d3bf 96bc 2f56 af3b bd4b 7abd
000002b0: 910c 173c dd14 643d 2741 41bc 4b0d 23bc
000002c0: 8343 77bd 2643 cc3b e2d0 65bd 72d2 d03c
000002d0: f090 a5bd b292 34bd 669d 3d3d d71a 44bc
000002e0: 2341 84bc c37b 133d 9dbc c83d 7d07 573d
000002f0: 12f3 0a3c 1d83 27bd f4cb 843d 9e68 9b3d
00000300: 939f 863b 328f 4ebc 5353 94bd 1d62 dc3c
00000310: 069a 883d c337 c7bc f46a 203d 9488 573c
00000320: 6e9e b9bd 6f63 22bd 2925 1cbc 6405 babc
00000330: 5a73 5fbb 6cc7 87bd 079c 8abd 99a3 9d3c
00000340: 44ba 58bc 230c 4cbd 23aa 12bd 1b08 293c
00000350: f77b a33d f7fd 843c 88de 18bd 13d1 0f3c
00000360: 0e7e 283d faf4 93bb 7d5e 4c3b e19f bcbc
00000370: 94b2 463c 7af4 debc 8fb7 dd3c 42a2 42bd
00000380: 1cd9 a1bd b5a2 b9bc db8c e03c 2211 01bd
00000390: 0483 42bd 8a24 87bd d6f5 2dbd 7d29 00bd
000003a0: d703 613c b4fd 353c f486 bfbb c980 2e3d
000003b0: 54b2 8abc 58c1 59bc 569a a13d 120c bd38
000003c0: d698 1cbd dbcc ef3c 56c2 393c 1854 723d
000003d0: 59f8 4cbc 113a 1cbd 054a fa3c 9dde 8e3d
000003e0: ffdf ae3d 68cd 17bd f72c 1fbd 4d4e 19bd
000003f0: bca4 91bd 71ef dbbc 6e9b 34bd e18b 6abd

fc1.bias f4 [120]
0.07517696 -0.03441786 0.008069388 -0.004636851 -0.02357514 0.096928105 0.011781357 -0.045528296
-0.05482442 0.031185282 0.13208035 -0.026531575 -0.0516334 0.06694383 0.023084102 -0.019231722
0.040001538 0.038460374 0.0055855466 0.024620803 0.22744636 -0.009497104 0.020314176 0.13484158
0.07373263 -0.033885513 0.04033314 0.0056076013 0.22122972 0.04120721 0.086362824 -0.087317
-0.027923347 -0.10331225 -0.02159207 -0.15727271 -0.12256756 -0.018668143 -0.028635751 -0.014889871
-0.0072918674 0.028122565 -0.023039306 0.033496022 0.003192773 0.0574557 0.06527109 -0.06652709
0.1572768 -0.13353972 0.096122764 0.0010202322 0.01628958 0.028634481 -0.015738046 0.04843479
0.015355069 0.012318051 0.12873358 0.058075618 -0.042682886 -0.057239912 -0.07835823 0.09939746
-0.0012511103 -0.012395071 -0.03786367 0.03220819 -0.042590734 0.13239974 -0.021310685 -0.06299202
0.12518187 0.15744232 -0.023434859 -0.05100955 0.08719597 -0.028563512 -0.06408687 -0.01809634
-0.0028300544 0.05084408 -0.13830256 -0.007890098 0.00926638 0.09137486 0.2043434 -0.037860524
0.17979047 -0.09433156 0.08299847 -0.13983984 -0.04388189 -0.04043076 0.117382996 -0.020993752
-0.0041058743 0.14079338 -0.050103832 -0.09220678 -0.13010369 0.27091792 0.0707614 -0.12565114
-0.022967378 -0.056216042 0.039625153 0.01379146 0.14322354 -0.03836963 0.013097556 0.08762742
0.15136003 0.13755216 -0.099895485 0.030014465 -0.042937726 -0.033784945 -0.03604168 0.15496063
00000000: 61f6 993d bef9 0cbd 7735 043c baf0 97bb
00000010: a720 c1bc 3e82 c63d 9806 413c e17b 3abd
00000020: 928f 60bd 4778 ff3c 1240 073e bf58 d9bc
00000030: 8b7d 53bd d919 893d df1a bd3c d88b 9dbc
00000040: a7d8 233d a088 1d3d f606 b73b 91b1 c93c
00000050: b3e7 683e be99 1bbc ea69 a63c e913 0a3e
00000060: 2201 973d 89cb 0abd 5d34 253d f8bf b73b
00000070: 0b8a 623e e4c8 283d fede b03d 41d3 b2bd
00000080: 81bf e4bc 5f95 d3bd dae1 b0bc 190c 21be
00000090: b304 fbbd efed 98bc 8695 eabc a5f4 73bc
000000a0: 9ef0 eebb 4b61 e63c edbc bcbc 2033 093d
000000b0: d83d 513b ab56 6b3d d9ac 853d 5b3f 88bd
000000c0: 2b0d 213e a3be 08be 03dc c43d 50b9 853a
000000d0: ba71 853c dc92 ea3c 13ed 80bc 8f63 463d
000000e0: d493 7b3c a7d1 493c bcd2 033e b3e0 6d3d
000000f0: 40d4 2ebd 6674 6abd 487a a0bd e590 cb3d
00000100: 4cfc a3ba b214 4bbc f016 1bbd bcec 033d
00000110: 9f73 2ebd cc93 073e bf93 aebc f601 81bd
00000120: ad2f 003e 8f38 213e 76fa bfbc 64ef 50bd
00000130: cd93 b23d 07fe e9bc fa3f 83bd c73e 94bc
00000140: 6f78 39bb e241 503d 309f 0dbe 7845 01bc
00000150: 04d2 173c be22 bb3d 653f 513e a313 1bbd
00000160: fe1a 383e e830 c1bd 1afb a93d 2d32 0fbe
00000170: 7fbd 33bd b99a 25bd 7f66 f03d 17fb abbc
00000180: 928a 86bb 242c 103e ad39 4dbd e9d6 bcbd
00000190: e739 05be c1b5 8a3e 5aeb 903d b1aa 00be
000001a0: 1526 bcbc cb42 66bd fc4d 223d 93f5 613c
000001b0: 31a9 123e 7929 1dbd 2297 563c 0176 b33d
000001c0: 20fe 1a3e 79da 0c3e 0196 ccbd e5e0 f53c
000001d0: 78df 2fbd 1562 0abd 71a0 13bd 00ae 1e3e

fc2.weight f4 [84, 120]
-0.027484173 -0.06683617 0.012154894 -0.00094527326 0.051728528 0.06706224 0.08589823 0.060344867
-0.028560897 0.02291512 -0.045281846 -0.0988678 -0.017038414 0.1145248 0.033703268 0.050522212
0.11552093 0.03834832 -0.08243283 0.06552847 -0.06553316 0.03279865 0.065012924 -0.044169668
0.06362035 0.030134276 0.03533715 0.05774718 0.046831254 -0.013888393 0.009718551 0.05064876
-0.018033287 0.03351406 0.0828025 -0.12044739 0.057732146 0.055839285 0.044253245 -0.086222
0.08886585 -0.036775686 -0.07816283 0.016862443 -0.08555652 0.012876967 -0.035291124 -0.004990854
0.015345847 -0.11187108 0.011456381 0.050503362 0.03081095 0.059241593 0.06168712 -0.012371083
-0.039697412 -0.0335213 0.009884469 0.10420709 -0.0024039054 -0.097910315 -0.0035665415 0.070418485
-0.07123144 0.02879628 0.0011058317 0.02107741 0.08790956 -0.010833445 -0.08694599 0.071807556
-0.08286906 0.026636474 -0.014075952 -0.03082674 0.06811781 -0.010089868 -0.048559424 0.02742005
0.019667547 0.021497702 -0.0119945835 -0.044736292 -0.070803806 -0.010515642 0.028112516 0.044234756
-0.054872174 -0.0727451 0.07078699 0.0034660387 -0.05430305 0.08367426 0.08210123 0.011795671
-0.07300799 0.1136197 0.049034584 0.020654239 0.12603733 -0.030749697 0.060765017 0.007684467
-0.01707857 -0.06133177 -0.09437249 -0.0342584 -0.03601735 -0.043212622 0.020165049 -0.04326854
-0.011619977 0.02426932 -0.07792338 -0.043416716 -0.008990436 -0.004489035 0.025261868 -0.04864057
-0.09483441 -0.10409529 -0.021485426 -0.106500216 -0.03272016 -0.092216246 0.03076237 0.07801183
0.055989593 -0.010556715 -0.12742107 0.012883248 -0.017080422 0.069651216 0.120183714 -0.043770157
0.046992794 0.0969629 0.007091129 -0.004019273 0.12116369 0.06456705 0.096081726 -0.07929812
0.046789315 0.020221567 0.082001075 -0.011141075 0.010493197 -0.056228265 -0.010892139 -0.07427488
0.10671001 -0.039718702 -0.04768746 0.00073912967 -0.057617467 0.009428687 0.098068 -0.051844575
0.12795016 -0.025868995 0.022027722 -0.09583818 -0.058168955 0.025405731 -0.00817936 0.0126487715
-0.08544441 -0.022323778 0.063752055 -0.16344132 -0.0747544 -0.09785203 0.010762997 0.0885647
0.019040233 -0.023445385 -0.13628975 -0.01795769 0.031643096 -0.024887523 0.07037061 -0.098154634
-0.07230121 0.0019590345 -0.029091494 0.04210836 0.062412065 0.14051184 0.033905465 0.06720738
0.0022505769 0.11733358 -0.025777224 0.08042289 -0.1616188 0.013707715 0.006333556 -0.064215146
-0.088518634 0.13964705 -0.030897599 0.019122338 -0.00036058557 0.089872055 0.037452307 -0.0073118866
0.05931289 -0.03365173 -0.10506284 0.007455968 -0.026247399 -0.014568952 -0.0671271 0.05306023
0.047600754 -0.06364595 -0.09424338 -0.04409997 -0.046255082 -0.05122839 0.018947946 0.1203399
0.001161881 -0.10121088 -0.024126092 0.05459659 0.010042215 -0.09487702 0.09580094 -0.067431666
-0.06647742 -0.0862523 0.015175762 0.07175148 0.028924737 0.06731179 0.026151365 -0.07991735
0.076426566 -0.042960383 -0.035689242 0.051355254 -0.031499974 -0.013966367 0.05893935 0.06179017
-0.084960215 -0.026855884 0.051035926 0.030249197 -0.059750326 -0.029303374 -0.024008498 -0.13008146
00000000: 7d26 e1bc 67e1 88bd 5225 473c 37cc 77ba
00000010: 4be1 533d ed57 893d 69eb af3d 2e2c 773d
00000020: 8bf8 e9bc 7db8 bb3c 7579 39bd 337b cabd
00000030: 2594 8bbc fa8b ea3d 700c 0a3d 61f0 4e3d
00000040: 3d96 ec3d 2113 1d3d 8bd2 a8bd ca33 863d
00000050: 4036 86bd e157 063d 7f25 853d 41eb 34bd
00000060: 634b 823d 28dc f63c b0bd 103d 4f88 6c3d
00000070: 21d2 3f3d 248c 63bc 8f3a 1f3c 1375 4f3d
00000080: 8bba 93bc 0a46 093d 5b94 a93d 1fad f6bd
00000090: 8b78 6c3d bcb7 643d e442 353d 2995 b0bd
000000a0: 4cff b53d 1aa2 16bd d513 a0bd 1b23 8a3c
000000b0: 4238 afbd eaf9 523c 6d8d 10bd 518a a3bb
000000c0: 266d 7b3c aa1c e5bd 8bb3 3b3c 9ddc 4e3d
000000d0: 3f67 fc3c 50a7 723d a2ab 7c3d 15b0 4abc
000000e0: c199 22bd a14d 09bd 78f2 213c 876a d53d
000000f0: d78a 1dbb 3485 c8bd a3bc 69bb 9137 903d
00000100: cae1 91bd 2de6 eb3c 8ef1 903a 88aa ac3c
00000110: ed09 b43d c37e 31bc bd10 b2bd d70f 933d
00000120: 41b7 a9bd bc34 da3c d29e 66bc 5c88 fcbc
00000130: 5a81 8b3d f94f 25bc 3fe6 46bd 03a0 e03c
00000140: d61d a13c f31b b03c ee84 44bc 673d 37bd
00000150: 9601 91bd cd49 2cbc 384c e63c 812f 353d
00000160: a5c1 60bd 62fb 94bd c5f8 903d 7b26 633b
00000170: e06c 5ebd 695d ab3d b124 a83d a142 413c
00000180: 3785 95bd 72b1 e83d 7dd8 483d 1433 a93c
00000190: ee0f 013e cae6 fbbc bde4 783d fbcd fb3b
000001a0: 5be8 8bbc 0637 7bbd 5d46 c1bd 8952 0cbd
000001b0: ee86 13bd b8ff 30bd 2c31 a53c 5a3a 31bd
000001c0: b761 3ebc 74d0 c63c 4b96 9fbd bad5 31bd
000001d0: 9f4c 13bc c118 93bb faf1 ce3c 563b 47bd
000001e0: 8b38 c2bd e92f d5bd 3402 b0bc c91c dabd
000001f0: 9305 06bd dfdb bcbd 5e01 fc3c abc4 9f3d
00000200: 5855 653d 12f6 2cbc ab7a 02be 4214 533c
00000210: 3eec 8bbc 4ca5 8e3d e122 f63d 5648 33bd
00000220: 847b 403d 7c94 c63d b45c e83b 1bb4 83bb
00000230: ab24 f83d bb3b 843d 7fc6 c43d 0e67 a2bd
00000240: 27a6 3f3d b3a7 a53c 2ef0 a73d 0e89 36bc
00000250: a8eb 2b3c 9c4f 66bd f174 32bc 6e1d 98bd
00000260: c78a da3d 14b0 22bd ed53 43bd 27c2 413a
00000270: 4b00 6cbd c87a 1a3c e0d7 c83d fa5a 54bd
00000280: 5e05 033e 37eb d3bc 7b73 b43c cf46 c4bd
00000290: 9242 6ebd ae1f d03c b902 06bc cb3c 4f3c
000002a0: 7bfd aebd 5be0 b6bc 7090 823d 295d 27be
000002b0: d618 99bd a566 c8bd 4857 303c 6961 b53d
000002c0: 43fa 9b3c 8910 c0bc 8a8f 0bbe 011c 93bc
000002d0: 319c 013d ebe0 cbbc 771e 903d 4c05 c9bd
000002e0: a812 94bd 2563 003b 4951 eebc d179 2c3d
000002f0: cba3 7f3d 56e2 0f3e 75e0 0a3d 06a4 893d
00000300: 6a7e 133b 974c f03d c22a d3bc c2b4 a43d
00000310: 667f 25be 5396 603c b889 cf3b 3b83 83bd
00000320: 4249 b5bd a3ff 0e3e f61c fdbc 73a6 9c3c
00000330: fa0c bdb9 d70e b83d 9767 193d 8d98 efbb
00000340: 13f2 723d 65d6 09bd 302b d7bd 3151 f43b
00000350: c904 d7bc 9db2 6ebc ef79 89bd af55 593d
00000360: 02f9 423d cf58 82bd ac02 c1bd 2ca2 34bd
00000370: f875 3dbd dcd4 51bd b938 9b3c c474 f63d
00000380: 424a 983a a647 cfbd 15a4 c5bc ada0 5f3d
00000390: 1a88 243c e24e c2bd 4933 c43d 9d19 8abd
000003a0: 5025 88bd 0ca5 b0bd c2a3 783c 71f2 923d
000003b0: 92f3 ec3c c4da 893d 633b d63c b5ab a3bd
000003c0: 8885 9c3d 3af7 2fbd e22e 12bd e359 523d
000003d0: 1e06 01bd 30d3 64bc 636a 713d b017 7d3d
000003e0: 9fff adbd df00 dcbc 0c0b 513d 2acd f73c
000003f0: c2bc 74bd a10d f0bc 78ad c4bc 1334 05be

fc2.bias f4 [84]
0.0138832815 0.20228525 -0.0011788065 0.14833127 0.079781614 0.11672359 7.7980934e-05 0.47528315
-0.02127183 -0.052513547 -0.023805253 -0.009858984 0.4882331 -0.04386446 -0.08331936 -0.011512609
-0.12561074 0.18117599 0.2781072 0.08307718 0.23809949 -0.11569626 -0.015080464 0.00071119075
0.023013243 -0.08624198 0.027232327 0.0069581135 0.19281876 0.13587308 -0.09040498 0.29713255
0.016716842 -0.032989636 0.07699733 0.012027955 0.32365727 -0.010741575 0.169057 -0.0749975
-0.0351962 0.30721572 -0.016653527 0.07372292 0.14185512 -0.029469324 -0.039016925 0.15150195
-0.074725 -0.057813402 0.05172389 -0.046835307 -0.01476804 -0.074498616 -0.0025846427 0.15258361
0.40835053 -0.021646291 0.21989517 0.12743498 0.23761187 0.2300973 -0.026398778 -0.028042685
0.11163081 0.2695398 -0.018393287 0.0422316 0.01144859 -0.1390158 -0.020481369 -0.07492564
0.00075067783 0.020940514 -0.06811831 -0.0011732624 -0.12312238 0.00018618368 0.10930267 -0.042406105
-0.07805917 -0.0013423937 -0.09440343 -0.035235498
00000000: b476 633c dd23 4f3e 2f82 9aba 27e4 173e
00000010: 8b64 a33d c70c ef3d b289 a338 5058 f33e
00000020: 4342 aebc 7218 57bd 3c03 c3bc 9387 21bc
00000030: b0f9 f93e 38ab 33bd 57a3 aabd 629f 3cbc
00000040: 1aa0 00be 3386 393e 1164 8e3e 5e24 aa3d
00000050: 5ad0 733e 29f2 ecbd 0d14 77bc 346f 3a3a
00000060: 4586 bc3c a39f b0bd 5416 df3c e300 e43b
00000070: 4872 453e 5022 0b3e 3f26 b9bd c221 983e
00000080: c2f1 883c 2420 07bd c7b0 9d3d e610 453c
00000090: 68b6 a53e 6efd 2fbc 471d 2d3e 4a98 99bd
000000a0: e429 10bd 614b 9d3e fa6c 88bc 0bfc 963d
000000b0: 7842 113e a769 f1bc 36d0 1fbd 5423 1b3e
000000c0: 6c09 99bd bfcd 6cbd 6edc 533d 61d6 3fbd
000000d0: a6f5 71bc bb92 98bd 1c63 29bb e13e 1c3e
000000e0: 5213 d13e 9053 b1bc 332c 613e 517e 023e
000000f0: 8750 733e a09e 6b3e 4042 d8bc c6b9 e5bc
00000100: b29e e43d 1f01 8a3e 85ad 96bc 0bfb 2c3d
00000110: de92 3b3c 285a 0ebe 8bc8 a7bc 9d72 99bd
00000120: 23c9 443a 718b ab3c 9d81 8bbd 27c8 99ba
00000130: 9627 fcbd 4d3a 4339 14da df3d 06b2 2dbd
00000140: 7cdd 9fbd 42f3 afba 9656 c1bd 1953 10bd

fc3.weight f4 [10, 84]
-0.119697966 -0.1012686 0.2254163 0.1533528 0.10458075 -0.18459257 -0.084899336 -0.113944665
-0.24092917 -0.08612167 -0.016954526 -0.060808998 -0.32461292 -0.033520635 0.027525352 0.032099612
0.08245769 -0.22437741 0.058343247 -0.19836228 0.099972844 0.096227325 0.060005497 -0.1833343
0.038072847 -0.16748025 0.0020761658 0.051909473 0.12901905 0.121705875 -0.0039951964 -0.053660892
0.09716941 0.027897066 0.119109645 -0.0009189612 -0.13836369 0.05981706 -0.048445325 0.029613242
0.23405997 -0.112827584 -0.08903795 0.041600857 0.28782806 0.10019763 0.008832692 -0.040547576
-0.02008656 -0.022642458 -0.0996958 0.17872673 -0.09339248 -0.0699943 0.09772343 -0.07513126
-0.16095363 0.08676018 0.0014262008 0.23571387 0.13745694 0.2622446 -0.01223172 0.078194775
0.03464728 0.30700257 -0.18436487 -0.11932987 0.08586715 -0.13021265 0.33998713 -0.016358921
-0.09686096 0.1256259 0.057441834 -0.15893213 0.16022103 0.30403244 -0.07914735 -0.028514955
-0.051778764 0.08792785 -0.030028144 -0.13784698 -0.0539414 -0.25412524 0.034867637 -0.29919276
-0.062038757 0.025654953 0.0607976 -0.28763166 0.27324542 0.08230497 0.027943678 -0.12294868
-0.32093763 -0.0028511377 -0.09045697 0.0003446739 0.13082002 0.023835773 -0.12851265 -0.025936889
-0.3165803 0.21866919 -0.10073595 -0.0024233693 -0.15975209 0.2571797 0.15561344 0.07433576
-0.119484216 -0.07525449 0.18626249 -0.13358127 -0.03186827 0.0722308 -0.13407052 -0.05585522
-0.32171997 -0.056688007 -0.13899285 0.25632346 0.1719814 -0.058351513 0.0762267 -0.039802436
0.047321185 -0.055239838 0.023765258 -0.1914373 -0.017231781 0.10696126 0.13792911 0.10171091
0.055174578 -0.027246356 0.0038367836 -0.051403157 -0.09260588 0.2940562 -0.07891223 0.013948648
0.1625571 -0.25051033 -0.2564571 -0.094786376 0.013163284 -0.1095263 -0.10067799 -0.014702814
-0.0019396606 0.19701158 -0.19898552 -0.07840595 -0.03139077 0.048030395 -0.034815494 -0.054195017
-0.016491167 0.40195218 0.029651484 0.111201644 -0.10017511 -0.1311181 -0.059729584 0.060107607
0.08965268 -0.06791917 0.094048694 0.14867522 0.018537244 -0.029429179 -0.089799225 0.18735635
-0.04540079 -0.015597292 -0.018561129 -0.06504831 0.16635765 0.06664408 0.019312851 0.082457624
0.13874693 -0.05781804 0.03976534 0.11898009 0.059864096 -0.05613054 -0.03658995 -0.12345257
0.0007837306 -0.18154314 -0.13887008 0.014990623 -0.23958848 -0.046283033 -0.0371384 -0.017482711
-0.047070038 0.11092215 0.044008307 0.1761804 -0.021211362 -0.08334554 -0.051400848 -0.16046561
-0.09431074 0.13408794 0.042733733 0.27314115 -0.080429286 -0.08084901 -0.06560828 -0.1623382
-0.08940053 0.09690901 -0.16411074 0.06898041 0.11144104 -0.090109535 -0.041779134 0.11977711
0.3218598 0.06659092 0.32892632 -0.06376557 -0.088295184 0.38121545 0.063741185 -0.112583
0.23064435 0.19552007 0.020165002 -0.07988896 0.10833953 -0.19712435 0.057287652 0.13918059
0.057860255 0.103586264 0.010030415 0.06769151 -0.082890294 -0.10434935 0.01830783 -0.09104052
0.14879881 -0.08773094 0.07640321 -0.035125464 -0.041590102 0.091221035 0.059688732 -0.15371208
00000000: 3524 f5bd e965 cfbd 88d3 663e 8408 1d3e
00000010: 6f2e d63d d605 3dbe b4df adbd d25b e9bd
00000020: 23b6 76be 8f60 b0bd 38e4 8abc db12 79bd
00000030: aa33 a6be ef4c 09bd d97c e13c e27a 033d
00000040: 94df a83d 31c3 65be 54f9 6e3d 7b1f 4bbe
00000050: 90be cc3d d512 c53d 53c8 753d fdbb 3bbe
00000060: 46f2 1b3d f17f 2bbe 4810 083b 079f 543d
00000070: 921d 043e ee40 f93d 23ea 82bb 86cb 5bbd
00000080: c100 c73d 6388 e43c c2ef f33d 71e6 70ba
00000090: 36af 0dbe bc02 753d 9b6e 46bd 7897 f23c
000000a0: 6bad 6f3e 2612 e7bd 8759 b6bd a965 2a3d
000000b0: 335e 933e 6a34 cd3d ffb6 103c 3715 26bd
000000c0: 928c a4bc ad7c b9bc 502d ccbd 2404 373e
000000d0: 8e44 bfbd 2c59 8fbd 3923 c83d 6bde 99bd
000000e0: 07d1 24be 52af b13d 5cef ba3a fa5e 713e
000000f0: 83c1 0c3e ed44 863e 8d67 48bc 9524 a03d
00000100: 4eea 0d3d 712f 9d3e 25ca 3cbe 3863 f4bd
00000110: 1edb af3d 7756 05be cb12 ae3e 2503 86bc
00000120: 0a5f c6bd 13a4 003e 2148 6b3d 1bbf 22be
00000130: fb10 243e 24aa 9b3e 0118 a2bd 3298 e9bc
00000140: f815 54bd 8413 b43d 95fd f5bc c227 0dbe
00000150: a8f1 5cbd b41c 82be 5ed1 0e3d cb2f 99be
00000160: 5a1c 7ebd 562a d23c e706 793d 7544 93be
00000170: d3e6 8b3e 828f a83d 24ea e43c 84cc fbbd
00000180: f051 a4be 27da 3abb 8141 b9bd 59b5 b439
00000190: aff5 053e 3d43 c33c d298 03be 9979 d4bc
000001a0: d016 a2be d1ea 5f3e a64e cebd 64d1 1ebb
000001b0: 0d96 23be 0fad 833e 2159 1f3e 593d 983d
000001c0: 24b4 f4bd 071f 9abd 98bb 3e3e 87c9 08be
000001d0: 4e88 02bd beed 933d c849 09be 71c8 64bd
000001e0: 7bb8 a4be af31 68bd 2454 0ebe d43c 833e
000001f0: e41b 303e ff01 6fbd be1c 9c3d e107 23bd
00000200: dcd3 413d 2b43 62bd 5caf c23c 2408 44be
00000210: aa29 8dbc 810e db3d 4a3d 0d3e cf4d d03d
00000220: bdfe 613d c033 dfbc 8c72 7b3b 1e8c 52bd
00000230: 27a8 bdbd 898e 963e bc9c a1bd df88 643c
00000240: 5e75 263e e442 80be 584e 83be 5c1f c2bd
00000250: d1aa 573c 534f e0bd 4330 cebd 12e4 70bc
00000260: 363c feba 67bd 493e dcc2 4bbe 4c93 a0bd
00000270: 9c93 00bd 85bb 443d b19a 0ebd 98fb 5dbd
00000280: 7c18 87bc adcc cd3e abe7 f23c b0bd e33d
00000290: 9c28 cdbd d343 06be 02a7 74bd 6533 763d
000002a0: d39b b73d 3519 8bbd 9a9c c03d 513e 183e
000002b0: 6bdb 973c 7615 f1bc a8e8 b7bd 58da 3f3e
000002c0: 2ef6 39bd c98b 7fbc 820d 98bc 0c38 85bd
000002d0: a959 2a3e b17c 883d fc35 9e3c 8bdf a83d
000002e0: ad13 0e3e 9cd2 6cbd fbe0 223d d5ab f33d
000002f0: 0e34 753d 23e9 65bd 58df 15bd b3d4 fcbd
00000300: 4573 4d3a 72e6 39be f533 0ebe 3b9b 753c
00000310: af56 75be 4793 3dbd 6f1e 18bd e737 8fbc
00000320: 83cc 40bd 272b e33d 0e42 343d a368 343e
00000330: 73c3 adbc 11b1 aabd b289 52bd 1951 24be
00000340: fd25 c1bd 594e 093e 9109 2f3d 28d9 8b3e
00000350: 1cb8 a4bd 2a94 a5bd a25d 86bd fc3b 26be
00000360: a017 b7bd 3b78 c63d a50c 28be 9a45 8d3d
00000370: 333b e43d 598b b8bd 9920 2bbd b44d f53d
00000380: cfca a43e d260 883d 0869 a83e 8697 82bd
00000390: 1bd4 b4bd ac2e c33e bd8a 823d ea91 e6bd
000003a0: 082e 6c3e 6a36 483e 1331 a53c d39c a3bd
000003b0: 1ee1 dd3d f7da 49be 75a6 6a3d 5b85 0e3e
000003c0: e0fe 6c3d 0925 d43d 9c56 243c d9a1 8a3d
000003d0: 63c2 a9bd 1db5 d5bd 4dfa 953c 7473 babd
000003e0: b75e 183e 47ac b3bd 4979 9c3d b8df 0fbd
000003f0: 625a 2abd 18d2 ba3d 2c7c 743d b366 1dbe

fc3.bias f4 [10]
-0.14027798 -0.52420425 0.08389421 0.29409057 0.47611523 -0.020751826 0.0311572 -0.23562096
0.20253444 -0.3591509
00000000: 08a5 0fbe 4032 06bf bad0 ab3d 0a93 963e
00000010: 60c5 f33e bcff a9bc 623d ff3c 9f46 71be
00000020: 3065 4f3e a0e2 b7be
